static/model_weights.pt (torch, 70267 bytes, 44 tensors)

stconv_block1._temporal_conv1.conv_1.weight f4 [18, 9, 1, 2]
00000000: e172 14be 092f 163e 5205 16bd 4b0d 95be
00000010: 7bec ecbd 51d7 64bc c2f5 803e 8afd 2bbd
00000020: cccb 6a3e 2613 0f3e 63a3 1a3e f409 283e
00000030: 4f83 253e c30f 893d ea2e e93d 0828 073e
00000040: 0673 563d 1848 ff3c aa1b e33d c7e9 01be
00000050: 9aee 173e 7268 49be 6bc3 173e a70e 5fbd
00000060: 96f3 a13d 5222 a53a 3877 2abd 5ad6 69bd
00000070: 2ad7 583d 282c 91bd 766b 973d 6a66 1f3e
00000080: efa9 67bd e5a3 0a3e bdb6 acbd 54cc 5c3d
00000090: 5615 d8bd a26b 1cbe 5042 90be b623 50be
000000a0: e09c 2abe a16f 013e 9bd0 d93c 0d38 ebbc
000000b0: 6bab 103e f757 fa3d 9cec e93c 7370 6a3e
000000c0: 6585 ca3d a217 1d3e 13aa 4b3e 1469 163d
000000d0: 90ec fb3d 0f00 43bc 5557 3fbe 4b12 71be
000000e0: 0ae0 aebd 8496 143c 1dbf e3bb 9c6d 2b3e
000000f0: 773e fa3d 8f95 9cbd a8d5 993c e8e0 283e
00000100: a946 74be 8605 42be 0c21 82bd 25d1 453e
00000110: 4d07 b83d 04ca 36bd 238a d6bd 35e0 92bd
00000120: cec1 1e3e 1864 62bd bb49 21be 8044 fd3d
00000130: 3335 3bbc 138c 74bd c056 d83d 8b15 15be
00000140: 9ce4 3c3e 6493 a2bd e527 1fbe 54b4 b03d
00000150: 98e4 32be 8686 e0bd 1b64 563e 4dc6 d93d
00000160: a9d5 cf3c dec8 9e3d e9fd 203e b457 cf3d
00000170: af2f 87bd 68b7 9ebd e7fe 0c3d 557d edbd
00000180: d65a 7f3e b275 b9bd 6d55 85bc c7f4 373e
00000190: 2401 583c 9bb9 0d3d f5c1 743b e4ac 093e
000001a0: cc15 76bd 2a95 d1bc 8672 83bd 59e5 84bd
000001b0: 4c8b fbbd f05d d5bc 02a0 f13d a401 03bd
000001c0: 3158 ae3b 27ec d8bd 94c3 a6bd 69ae 433e
000001d0: 7c37 29be 1280 183e 6152 06be 197c 49be
000001e0: a25f 7a3d b88f eb3d 718d a43d e19c 4d3c
000001f0: 2b2b 1e3d 895e 3bbe 136f 0c3e 137b 963e
00000200: ac31 7e3e e4ec 443e 03ac 173e 652a 9d3e
00000210: 907d 16be 7f17 023e 38eb 843e 6e1b 163e
00000220: ba0f 803d dd62 d33b 62e0 573d 74b4 b13d
00000230: 28ce 993e 534e 2a3e 9a00 083b 3a68 d4bd
00000240: 6fab 0abd 915a 9ebc 1e74 a13d a9c7 9cbc
00000250: 1223 953e cc44 c03d 11b5 d33d b4e5 b93d
00000260: fed0 1abe f1c7 1d3d 6245 183e b32c 893d
00000270: 841f 81be e765 6dbe cfb5 1a3e 562a afbc
00000280: 1858 2abd 41e8 90bd 4688 563e ed82 953c
00000290: ff21 de3d 4fbc 173e d3e3 cf3d 455e ef3d
000002a0: 13c6 4d3d 9d46 e13d bc02 73be c44b 6b3d
000002b0: d27f e8bd 615f 143e 9644 24be 1b1d 9ebd
000002c0: 9778 81be 848d 233e 0404 993d 02e6 3b3e
000002d0: cb68 09be a94f 923e f87e e53d 3005 b7bd
000002e0: 7161 adbd 040d 9d3d cdee 4a3e 2980 603e
000002f0: 8c78 4a3e d463 dfbd 1ef3 813e 083b 863d
00000300: 38b1 373d 0366 09be ce78 d9bb e009 923e
00000310: 0bb2 8fbd 2abf f6bd 6a02 f9bc 678c 243e
00000320: 5fc9 62be 7757 86be 94c9 743d 410a 263c
00000330: 84ef 47be d4e4 32be 7ce2 1fbe 7a0b 293d
00000340: c97e 1f3e f89e 50bb b548 6a3d 7c4b e43d
00000350: 6fd6 ed3c 1ce7 5d3c d74f f23d 5777 46be
00000360: 5233 9b3d 8c62 0ebe 425f d9bd f5ca cf3d
00000370: 88f3 7a3e 4814 50be 1aba 453e 26b4 403c
00000380: f000 80bd 0e03 3e3e fcbe ef3c 5b14 9c3d
00000390: 7efe d33b 685a edbd b348 643e a354 ee3c
000003a0: c8d0 3abe 5715 823e f1a5 cb3c 47d3 a5bd
000003b0: 2c51 bc3d dc77 1b3e f4b4 013e 5c1c e0bd
000003c0: ca84 933e 17f7 983e 17ad 8a3e a9c8 663d
000003d0: 0c6f ddbc bd60 663e 713d 22bc 0cb7 15be
000003e0: 6788 be3b d232 26be b56c dd3d 59fc 19bd
000003f0: 8bd8 f73d e76d 373d 0e93 b83d 71b4 713c
-0.14496948 0.1466638 -0.036626168 -0.29111704 -0.115685426 -0.013967351 0.25187498 -0.04198984
0.22929305 0.13972148 0.1510139 0.16410047 0.16163372 0.066924594 0.11385901 0.13198864
0.05235579 0.031162307 0.11089261 -0.12686835 0.14837113 -0.19668749 0.1482064 -0.054457333
0.079077885 0.0012598729 -0.041617602 -0.057089187 0.05293957 -0.070885 0.073935434 0.15566412
-0.056558546 0.13539083 -0.08433292 0.0539058 -0.105509445 -0.15275434 -0.28175592 -0.20326123
-0.16661406 0.1264024 0.026588729 -0.02871325 0.14127891 0.12223809 0.028555207 0.22894458
0.09888724 0.15341046 0.19889097 0.036721304 0.1230098 -0.011901869 -0.18685658 -0.23542134
-0.08538826 0.009069089 -0.0069502727 0.16741031 0.122189455 -0.076457135 0.018778637 0.16492045
-0.2385508 -0.1894742 -0.063539594 0.19318064 0.089857675 -0.04462625 -0.10475566 -0.0717167
0.15503618 -0.055271238 -0.15750782 0.12366581 -0.011426258 -0.059703898 0.10563421 -0.14558999
0.18446583 -0.07938269 -0.15542562 0.08628145 -0.17470014 -0.10963158 0.20936625 0.10633526
0.025370436 0.07753156 0.15721859 0.1012415 -0.06600892 -0.07749826 0.03442278 -0.11596171
0.24936995 -0.09055652 -0.016276086 0.17964469 0.013183866 0.034600835 0.0037347053 0.13444859
-0.06007938 -0.025583822 -0.06418328 -0.06489057 -0.12282428 -0.02604577 0.11798097 -0.031983986
0.005320572 -0.105919175 -0.08142772 0.19109501 -0.16525072 0.14892605 -0.13117363 -0.19676246
0.06112636 0.115020216 0.0803479 0.01254961 0.038615387 -0.18297781 0.13714246 0.29390773
0.24823636 0.19230992 0.14811711 0.30696407 -0.14696336 0.12704276 0.25960708 0.14658901
0.062529996 0.0064509944 0.052704223 0.08676997 0.30040097 0.16631441 0.0020752312 -0.10371442
-0.033854898 -0.019330295 0.07883476 -0.019138174 0.2912832 0.09388122 0.1033727 0.090770155
-0.15118787 0.038520757 0.14870217 0.06697979 -0.25219357 -0.23183404 0.15108417 -0.021382492
-0.04158792 -0.07075549 0.20950422 0.018250907 0.10846328 0.14817928 0.10150876 0.11687902
0.050237726 0.109997965 -0.23731512 0.057445303 -0.11352505 0.14489509 -0.16041788 -0.07720395
-0.25287315 0.15971953 0.07471469 0.1834946 -0.13418882 0.285764 0.11205858 -0.08936536
-0.08465851 0.07668498 0.19817658 0.21923889 0.19772547 -0.109077126 0.25380796 0.06554228
0.044846743 -0.1341782 -0.0066367155 0.2852316 -0.07016381 -0.120481804 -0.030396659 0.16069184
-0.2214713 -0.26238605 0.059762552 0.010134281 -0.19524962 -0.17470104 -0.1561374 0.04127071
0.15575708 -0.0031833034 0.057198245 0.1114721 0.029032914 0.01354387 0.118316345 -0.19381462
0.07578148 -0.1390478 -0.10613872 0.10146133 0.24506962 -0.20320237 0.19309273 0.011761701
-0.06250179 0.18555853 0.029265873 0.0762107 0.006469547 -0.11589509 0.22293358 0.029093092
-0.18243706 0.25406906 0.0248594 -0.080969386 0.0919517 0.15182441 0.12666684 -0.10942909
0.28812248 0.29876015 0.27085182 0.05634371 -0.02703049 0.2249784 -0.009902344 -0.14620608
0.0058146003 -0.16230324 0.1081175 -0.037594173 0.12101849 0.044782545 0.090124235 0.014752493

stconv_block1._temporal_conv1.conv_1.bias f4 [18]
00000000: e21b b0bd 922a 863d 9e59 6abe 6c98 b0bc
00000010: 823e 4e3d 69be 43be fd5f fe3c fd91 ad3d
00000020: ce6e 5cbe 01eb 1abe cff0 343d 9ab5 f1bd
00000030: 92e4 09be 9de9 8dbe b153 d23d 8d71 16be
00000040: ec63 fa3d b16c 14be
-0.08599068 0.065510884 -0.22885749 -0.021557055 0.05035258 -0.19115604 0.03105163 0.08475111
-0.21526644 -0.1512871 0.044174965 -0.11802216 -0.13466099 -0.27717295 0.10269869 -0.14691754
0.1222609 -0.14494587

stconv_block1._temporal_conv1.conv_2.weight f4 [18, 9, 1, 2]
00000000: 99b9 e7bd 1f51 af3d 6c15 883e d138 913e
00000010: 606b 4ebe 804f 5c3e f926 f7bd 1a91 03be
00000020: 3dac 28be 53ef b1bd a9eb 3bbe 7ddc ff3d
00000030: 392c 783d 6166 903e de50 7dbe ca0b 2bbe
00000040: 6157 37be 545b 2dbe 298f c03d 7239 61bd
00000050: 9f0f d3bd 6af7 6bbe a9b5 d9bd 72f8 013e
00000060: 8b10 df3d 61a8 62bd b28a 6e3e 7345 30be
00000070: f112 2cbd 2cad 293e 2b3f bf3d 9d3b 2b3d
00000080: 8d65 01be ed6e 703e 34bf 0c3e b6a1 343e
00000090: aead 86bc e241 47bd d595 da3c 0b18 943e
000000a0: 02d8 5cbe 773b e8bd 36b5 4ebd 1bed 90be
000000b0: 3023 83be 77aa 27be 799b 14be 4374 96be
000000c0: 6b22 69bd c88d 9b3d eddb 1abd 7da5 60be
000000d0: 6e48 243e bafa 92be 5e96 56bd 8afe c2bd
000000e0: 30a8 3a3e ebdc 793e 26af 2a3e 3bb4 fdbd
000000f0: c726 4c3c d5ad efbb 539c efbc a962 483d
00000100: d403 f2bd 8198 103e 51f8 3dbe 318c e9bd
00000110: 056e 0bbe c311 23bc 81cd b2bd 397a 013e
00000120: 2f73 933d 323a 3a3e 1107 23be f3f6 da3c
00000130: f61a 313e 31be 8e3c a07d 543e 62a5 863d
00000140: b2ec f63d 5854 05bb 12a1 18be 8ec7 7f3e
00000150: 449d e3b9 f5c3 94be da44 873e 1dbc 0f3c
00000160: 6820 9dbd 9d2d d93d bc98 cc3d 8c77 363e
00000170: 3c03 053d 7ed6 debd d6ce 853e 98de 383d
00000180: 6199 a13d 50f4 923e 8b82 27be 54e6 20be
00000190: 9a03 d03c 4bcd 03be 0340 043e 041a 493e
000001a0: cb00 9b3d b953 5dbc 60b8 923c ff6d 8a3e
000001b0: ca0a cf3c d556 273e 464a 813e e146 f33d
000001c0: cac7 623e 9954 3fbe 9ed0 c93d 9fd6 023c
000001d0: f965 143e de72 5ebd 06db 033e b1dc 013e
000001e0: 899f 30be 0bef ec3d a582 de3d 9059 29be
000001f0: a885 473e dc20 16be 475a d63d 5f02 2abe
00000200: 3446 5f3e 413f 4ebe 04f6 39bc 34f9 30be
00000210: 0a7f aabe 56c1 df3d 3ad3 dcbc 9120 7abe
00000220: 266c 1a3d 31c4 91be 465e 2d3e c5ff 23be
00000230: c06c 06be f0a9 5abe 022f 2dbe 9308 55be
00000240: 5065 2ebe cad6 ddbd c964 ca3d 19ea f1bd
00000250: afe9 49ba 54cc 253d e9d8 123d ca4c 73bd
00000260: b9b0 093e 399a 3fbd 31b7 fd3d 5397 a43d
00000270: c780 513e 7011 373e 6d88 3b3c 4f82 d4bd
00000280: 88b4 a9bd a110 223e 4d1f c8bd 3ad3 70bd
00000290: 5864 a4be 107e 7cbd eed2 113c dc6c 5b3d
000002a0: 71f7 fabd 720d b53d c742 613e 8f31 ad3d
000002b0: 9188 c3bd fa0b f2bd 316b 4ebe 9907 47be
000002c0: 9861 103e 9fbb 733e d44a 2dbe ab95 563e
000002d0: 360b 9dbd b3cf 27be 4e46 e8bc 6be9 853d
000002e0: ad4b 4a3d f736 8a3e e3da 173d 191c 433d
000002f0: cb7f 713e 8352 22be 16db a4bd cd4f 25bd
00000300: 1575 293e 063f 493e 6144 1ebe aa67 f53c
00000310: c63d e6bd 844e d63d 6d10 1c3b 9532 59bd
00000320: 30cd 52be 4556 c6bd 1536 3ebe 9efd 05be
00000330: f881 853e dccf c63c 7525 15be 7fc8 583e
00000340: ede2 2b3e c6ba ed3c 9b4a 36be 1340 713e
00000350: 632c adbd 5907 e3bd 3af5 5abd 7bad 41be
00000360: 2ff7 55be f528 d2bd 72ed 8ebd 6637 15bd
00000370: d1e7 25be b721 f53d 645a d93d 4ea8 f7bd
00000380: 2568 98bd 01af 08be dd51 7a3e 6492 ae3d
00000390: c86e 25be 4e5d 30be 931a 133e 38e6 1b3e
000003a0: 88d1 1e3e 2780 eebd 7075 0abe 39cb 47be
000003b0: 2732 bc3b dda2 18bd d0df 503d 42a6 223e
000003c0: 6664 fe3d d5a0 92be 9f7d 56be 2839 56bc
000003d0: 1d6a c6bd 06bf d6bd 8aae 85bd e1d6 7c3e
000003e0: 144b e6bd d147 9b3d b576 1dbc 7676 67bd
000003f0: 6940 293e 870f fabd 6e1f 32bc c589 40be
-0.11314697 0.085603945 0.26578844 0.2836366 -0.20158148 0.21514702 -0.1206798 -0.1284832
-0.16471954 -0.086882256 -0.18351616 0.12493227 0.06058905 0.2820311 -0.2473788 -0.16703716
-0.17904426 -0.1692937 0.09402306 -0.054986425 -0.10305714 -0.230436 -0.10630352 0.1269243
0.10891827 -0.05533636 0.23295096 -0.17213993 -0.04201025 0.16569966 0.0933822 0.0418049
-0.12636395 0.23479815 0.13744813 0.17639813 -0.016440239 -0.048646815 0.026682774 0.28924593
-0.21566775 -0.11339467 -0.050465785 -0.28305897 -0.25612783 -0.16373621 -0.14512433 -0.29385576
-0.05691759 0.07595402 -0.037807394 -0.21938129 0.16043255 -0.28706914 -0.052389495 -0.09521206
0.18228221 0.2440068 0.16668376 -0.12387892 0.012460417 -0.0073144236 -0.029249346 0.048922215
-0.118171364 0.14120676 -0.18551756 -0.114036925 -0.13616188 -0.009952965 -0.08730603 0.1264428
0.07199704 0.18186262 -0.15920664 0.026729083 0.17295441 0.017424675 0.20751047 0.06574513
0.12056865 -0.0020344462 -0.14905193 0.24978468 -0.00043413986 -0.29055753 0.26419717 0.008772877
-0.076721966 0.10604403 0.09990069 0.17819041 0.032473788 -0.10880755 0.26134366 0.045134157
0.07890583 0.2870202 -0.16358392 -0.15712863 0.025392342 -0.12871282 0.12915044 0.1963883
0.075685106 -0.013508731 0.017910182 0.27037045 0.0252737 0.16341718 0.2525198 0.118787535
0.22146526 -0.18684615 0.09854244 0.00798574 0.14492024 -0.054308765 0.1287652 0.12681843
-0.17248358 0.11569031 0.10864762 -0.16538072 0.1948458 -0.14660972 0.10466438 -0.16602467
0.21804124 -0.20141317 -0.011350159 -0.17282563 -0.33300048 0.10925548 -0.02695619 -0.24426486
0.037700795 -0.28469995 0.16930494 -0.16015537 -0.13127422 -0.21353889 -0.16912463 -0.20804052
-0.17030835 -0.108319834 0.098825045 -0.11812229 -0.0007702363 0.040478066 0.035851393 -0.059399404
0.1344632 -0.046777938 0.123884566 0.08036675 0.20459281 0.17877746 0.011446101 -0.10376417
-0.08286387 0.15826656 -0.09771595 -0.05879519 -0.32107806 -0.06164366 0.008900387 0.053570613
-0.12254227 0.08840455 0.2199813 0.08456718 -0.09547532 -0.118186906 -0.20158078 -0.19436492
0.14099729 0.2380204 -0.16923076 0.20955531 -0.07668154 -0.16387825 -0.028353836 0.065386616
0.049388576 0.2699506 0.03707398 0.047634218 0.23583905 -0.15851788 -0.080496 -0.040359307
0.1654857 0.19652948 -0.15455772 0.029956657 -0.11242251 0.104641944 0.0023813501 -0.053026754
-0.20586085 -0.09684423 -0.18575318 -0.13085029 0.2607572 0.024269037 -0.1456507 0.21170233
0.16785784 0.029019725 -0.17801897 0.23559599 -0.08455732 -0.11085386 -0.053456523 -0.18913834
-0.20895074 -0.10261718 -0.06978883 -0.036429785 -0.16201712 0.11969321 0.10612944 -0.120926484
-0.07441739 -0.13348009 0.24445291 0.085240155 -0.16155541 -0.17223093 0.14365606 0.1522454
0.15509617 -0.11645537 -0.13521361 -0.19511117 0.0057432833 -0.037264694 0.050994694 0.15883735
0.12421493 -0.2863833 -0.20946358 -0.013075151 -0.09688208 -0.104856536 -0.06527431 0.24691345
-0.11244789 0.07582057 -0.0096108215 -0.056509458 0.16528477 -0.12209993 -0.010871751 -0.18802555

stconv_block1._temporal_conv1.conv_2.bias f4 [18]
00000000: 653a 18be 3899 423e 7175 45bd 0a9b 103e
00000010: 1b7b ef3b 589d d63d fa71 1cbe 7c96 073d
00000020: 93d3 043e 5c64 72be 447c 3fbe d4a9 2d3d
00000030: e808 4fbd 1448 e43d 3f16 6e3d cf5e d5bd
00000040: 2eda 8ebd f427 213e
-0.14866026 0.19003761 -0.048207704 0.14121643 0.0073083765 0.1047923 -0.15277854 0.033102497
0.12971334 -0.23671097 -0.18699747 0.04239829 -0.050545603 0.1114656 0.058126684 -0.10418474
-0.06975208 0.15737897

stconv_block1._temporal_conv1.conv_3.weight f4 [18, 9, 1, 2]
00000000: 9200 b2bd 21e7 263e c05d 1ebd 2ac3 933d
00000010: 9adb 22be 69a5 fe3d f6ca 0ebe 35ea 733e
00000020: a364 08be c28d e4bc 646e 3d3e 4e40 243e
00000030: 1657 273e 2c9a 93bd 4536 283e a753 10be
00000040: 614c 843e dff1 34be d0e3 4e3e 3db2 47be
00000050: 50e6 50be 3664 babe faba 76be 0dc6 8cbe
00000060: 24a9 e23d 5660 42be b8c2 463e f2d7 babd
00000070: eb9a 34be 4ccb a5bb a593 053c 8f8d 013e
00000080: d746 003d c344 273e fe88 813d e00c 81be
00000090: 5430 773e 3936 f2bd 2cdf 93be 16e1 7ebd
000000a0: 7f73 3ebe f927 053e 5902 aabd c993 653d
000000b0: 96a9 00be 1609 4d3e 0210 cfbd 4dc9 fd3d
000000c0: 441b 2c3d f92d 3fbe 67f8 893d 13be 08be
000000d0: be5e 423e c715 1e3e bf71 3abe 54da f8bd
000000e0: 56e0 ba3d b5bb d73e f982 39be 4e4b 073d
000000f0: dab1 2e3e 0890 56be 1ac3 253d 6b3e 7e3d
00000100: 8ec9 e93d 86b5 50be e070 4a3e 79c9 393e
00000110: 8f09 253e 1341 b43d 3436 08be 4055 4f3e
00000120: 2993 963e e525 44bd 5a56 15be a70f c5bd
00000130: 258d 623e 28e2 293c 5161 8d3e 8b90 40bd
00000140: 480f 7a3e ec67 903c 4e47 dcbb b72a 183e
00000150: 1763 e0bc 33fa 87bd 5976 053d 9147 83bd
00000160: f1b0 923e 3d2f f5bc 80e1 9ebd 33ee 943e
00000170: c680 30be 77d2 65bc 7db9 b8bd 9a37 cd3d
00000180: a7f6 3fbd 2fb4 933e fe23 9dbd 2279 803e
00000190: 1faa a0bd 8f48 3b3e f5d9 bfbd 45be 35bd
000001a0: 6113 833e 6cd5 3c3e de97 26bd 8cd9 e7bd
000001b0: 73ae 0abe 973e d4bd 290e a53e 924b fe3d
000001c0: 7913 943d d433 53be e5bb a8bd ddfd 28be
000001d0: 6de2 633e a700 65be de4f 563d 5b46 473e
000001e0: 1c12 bdbd dad0 ac3d 33d7 733e cefd 803e
000001f0: 47cb 78bd f2ed 42be 2c5b 0d3b 6e2f 953e
00000200: 0591 68bd d27c 3cbe 80c8 b1bd c45b 7a3d
00000210: a6fa 8d3e 50ba 61bc 0b8a 85bd ff1c de3c
00000220: 41f9 a9bc 2676 9abd f357 223d 0006 5dbe
00000230: d3c6 dcbd 3b57 823e 5878 193e 8522 e7bd
00000240: cf30 9bbd ccf2 c13d c89f 42bd d40e 97be
00000250: 0d9c 263e b836 393e 994e 4c3d 18c6 43bd
00000260: b7b0 6ebb dc11 9c3e 1d02 183e f057 22be
00000270: 1656 2c3e b477 c03d caab bb3c 3a3c 923d
00000280: 4bb1 9bbb 3409 c63d f10c 39be 79f1 a93d
00000290: 266a 153e 5299 ad3e e116 07be ef21 183e
000002a0: f078 53be 7b0a 9dbd 3860 db3d 121f 4ebe
000002b0: 8a91 6bbd 48c0 3cbe aa78 343e b597 49be
000002c0: 33c7 4c3e 8a7f 98bd 8f5c 2bbe 1b56 00be
000002d0: b7e0 f8bc 4241 8c3e 7bc8 363d 16ba 493c
000002e0: 021f 743d 5828 013e d32c de3d 1cb5 d23d
000002f0: 885b 923e 1f5d 5d3c a825 d13b f487 963e
00000300: 6266 5fbc 6de3 eabc adf9 87bd e543 473e
00000310: cc77 423e 4b84 08be d1f4 cfbd deaf 463e
00000320: f50f 493e 95ef 533c c57e 1abe 703d 35be
00000330: 3068 9d3d a91b a23d ec2c b6bd a2d8 2ebe
00000340: 0966 c1bd 94d5 763d 2422 00be acbd b9bc
00000350: 34bd 383c 04e8 6ebe 10c2 e63d afbd 0bbe
00000360: b546 0c3e c5d4 4cbe c89d a53d aaa1 603e
00000370: c37c 15be dabf 0ebe c77d d33d 67a0 62be
00000380: 2264 1fbc 0dea bebd 5140 09be f298 d33d
00000390: 10bc 0cbe e9c6 cfbc bbe2 aebc 945d 0a3e
000003a0: bf50 4a3d bbff 2fbe fd11 0b3e c542 313e
000003b0: 2b57 ee3d f68a 353b c0bd 65bc e779 1ebe
000003c0: 1b12 60bd 384c 103c d0d6 c2bd a5c4 833c
000003d0: 09ab 2d3e d79f 883e 81a9 273e cb0c 8dbd
000003e0: 6dcc e83d 5914 57bd 1d5b f53d 3b6b 23be
000003f0: 6d1d 233d c5f9 92bd 01b4 fabd b52b 29be
-0.08691515 0.16299106 -0.038663626 0.07214959 -0.15904084 0.12433893 -0.13944611 0.23819812
-0.1331964 -0.027899627 0.18499142 0.16040155 0.16341814 -0.0720714 0.16426952 -0.14094411
0.25839522 -0.17670391 0.20204091 -0.19501586 -0.20400357 -0.3640458 -0.24094763 -0.2749485
0.11067417 -0.18982062 0.19410217 -0.091232195 -0.17637222 -0.0050596353 0.008152877 0.12651657
0.03131756 0.16334824 0.06324957 -0.25205135 0.2413953 -0.118267484 -0.28881204 -0.062226377
-0.18598746 0.1300353 -0.08301229 0.056049142 -0.12564692 0.20022997 -0.10110475 0.12391911
0.04201819 -0.18669881 0.06736832 -0.13353758 0.18981454 0.15437995 -0.18207453 -0.12151018
0.0912482 0.42135397 -0.18116368 0.0330308 0.17060032 -0.20953381 0.040469266 0.062071245
0.11415397 -0.20381746 0.19769621 0.18143262 0.16116928 0.088014744 -0.13301927 0.20247364
0.2940915 -0.0478877 -0.14583722 -0.09622126 0.22124155 0.010368861 0.2761331 -0.047012847
0.24419892 0.017627679 -0.0067223674 0.14860044 -0.027391 -0.066395186 0.03258357 -0.064101346
0.2865062 -0.029929752 -0.077578545 0.29087982 -0.17236623 -0.0140272295 -0.09019754 0.10020371
-0.046866085 0.28848407 -0.076728806 0.25092417 -0.07844948 0.18289398 -0.09367744 -0.04437091
0.25600722 0.18440789 -0.040672176 -0.11320791 -0.1354311 -0.103635006 0.32237366 0.12416758
0.072302766 -0.2062524 -0.08238963 -0.16503091 0.22254343 -0.2236353 0.05232226 0.19460432
-0.0923197 0.08438273 0.2381256 0.25193638 -0.060740735 -0.19036081 0.0021569235 0.29137748
-0.056778926 -0.1840699 -0.086808205 0.06112267 0.27730292 -0.0137773305 -0.0652047 0.027113436
-0.020748736 -0.07542066 0.039634656 -0.2158432 -0.1078011 0.25457177 0.14987314 -0.11285881
-0.07577669 0.09470138 -0.04751566 -0.295035 0.16270466 0.1808728 0.049879644 -0.04779634
-0.0036421248 0.30482376 0.14844556 -0.15853858 0.16829714 0.093978316 0.022909064 0.071403936
-0.0047513596 0.09669724 -0.18071343 0.082980104 0.14591274 0.33906037 -0.13192321 0.14856695
-0.20651603 -0.076680146 0.10711712 -0.2012904 -0.057511844 -0.18432724 0.17624155 -0.19686778
0.19997863 -0.07446201 -0.16734527 -0.12532847 -0.03038059 0.27393538 0.044624787 0.012312433
0.059599884 0.12613046 0.10848393 0.1028845 0.28585458 0.013510971 0.006382663 0.294006
-0.01363525 -0.028672898 -0.06639419 0.19459493 0.18991011 -0.13331716 -0.10154117 0.19403026
0.19634993 0.012935539 -0.15087421 -0.17699218 0.07685888 0.07915432 -0.08895287 -0.17074826
-0.0944329 0.060262278 -0.12513024 -0.02267345 0.011275578 -0.23330694 0.11267483 -0.13646577
0.13698848 -0.2000304 0.08086735 0.2193667 -0.14598374 -0.13940373 0.103267245 -0.22131501
-0.009728463 -0.093219854 -0.13403441 0.103319064 -0.13743615 -0.025363402 -0.021348348 0.1351226
0.04939341 -0.17187397 0.1358108 0.17310627 0.1163772 0.0027701235 -0.014022291 -0.1547619
-0.054704767 0.0088072345 -0.095136285 0.016084978 0.16959776 0.26684448 0.16373254 -0.06887206
0.11367116 -0.05250964 0.11980269 -0.15958874 0.039822984 -0.07176546 -0.12241364 -0.16520579

stconv_block1._temporal_conv1.conv_3.bias f4 [18]
00000000: 7c3f 76be 6545 4fbe 23db 3b3e d6b7 463e
00000010: ce2a 40be a0a8 81bd 8d5b 363e 8b83 973d
00000020: 5651 2c3d c188 aa3d d99c 963c 911f 36be
00000030: 082a 033d df58 54be 7101 3fbe d33d 003e
00000040: a971 1d3e 80a0 d83d
-0.24047655 -0.20241316 0.18345313 0.19406065 -0.18766329 -0.06330991 0.17808361 0.07398137
0.042069755 0.08326865 0.018385338 -0.17785479 0.032022506 -0.20737027 -0.18652894 0.12523584
0.15375389 0.10577488

stconv_block1._graph_conv.bias f4 [18]
00000000: 0bee 6fbd bae5 7cbd 39f9 75bd 42ba e13a
00000010: 9a66 75bd 5407 e8bc 6a6f 123d bff4 75bd
00000020: bdf6 4c3d 558c 68bd cdf5 913b 465e 1a3d
00000030: 4b72 673d 5bd1 0cbd 495c da3c f17c e0bc
00000040: 6c12 78bd 30f2 96bd
-0.058576625 -0.06174252 -0.06005213 0.0017221647 -0.0599123 -0.028323807 0.035750784 -0.06004786
0.050039995 -0.056774456 0.0044543506 0.037687562 0.056505483 -0.034379344 0.026655333 -0.027403327
-0.060564443 -0.07370412

stconv_block1._graph_conv.lins.0.weight f4 [18, 18]
00000000: 7032 d1be 3d2b cbbe 6ae8 a9be 27ac b2be
00000010: 60f0 b8bd 6285 76bd 83d5 d4be a071 35be
00000020: 5975 0a3e 5f9f 9cbd 7b28 eabd f8dc a2bd
00000030: b16a a8be b870 653e b515 b0be 861a e13d
00000040: 75ed 33be 0aaf 1fbe 1d5b b03e 6249 88be
00000050: bfd5 c4bd 2022 b6be bfdc 693d 6338 1cbe
00000060: 38f1 a93e 83ad b0be e279 7abd 9b1c bf3d
00000070: adc6 bb3d 2fed e8be 73fb f0be eac4 5b3e
00000080: c809 a3be fd3a 8cbe b1cd 8ebe 0353 4ebd
00000090: c9c2 6d3e 6db5 c9be 0d79 9dbd fb51 123e
000000a0: 0af5 f23b 9f52 8a3e 1e4f a1be cb92 033e
000000b0: a88e 493e cbe5 96bd dff2 b6be fe38 b8be
000000c0: b2f1 d6be f801 beba 3c86 b5be 2910 ecbe
000000d0: 5622 b3be 5ac6 583e 08d1 a03e 91b5 0fbc
000000e0: 69b2 e53d 9be5 b63e 492f bc3e 2409 4f3e
000000f0: 3bf7 6b3d 78d9 a6be baef 81be a2e1 a13e
00000100: 5000 02be 8ec0 c9be de4f 67be 4686 3c3e
00000110: d592 03bd 2184 90bd 31ca 073d fb78 d7bd
00000120: ce3b 65be 55a8 6abe db6e 723e 86c6 d4be
00000130: 0655 b6be bff8 73be a88a 8e3e 21cb 8e3e
00000140: dfb4 9d3e 19be cebe 05ec 713e 4ac7 cbbe
00000150: c8a8 813c 64f4 84bb 2671 84bd b267 2e3d
00000160: 44ee 68be 899a 523e 6fee 873e 6817 a23e
00000170: 3aad a2be 1625 923e c36d acbe ccd9 d13b
00000180: b049 563e 1394 80be 7eda 633e 119d a13d
00000190: f141 b83e 6162 89be 5f83 b5bd 1b7a a63d
000001a0: bf7d d93d 1c1b 973e 30a0 ca3e 02ca 8abe
000001b0: 8891 e23d e2dc 9bbd 3b8a a7bc c7de 79bd
000001c0: a0a0 59bc 1889 cebe a5d4 edbe 6cf1 c7bd
000001d0: 6c1c 953e 0507 883e 23ad 723d 67fe 92bd
000001e0: fac8 c8be 16b4 a93e 37c3 8abc accf 09bd
000001f0: 21ac c63e 6c63 643e b033 433d 57a1 42bc
00000200: a6b3 633e f7c9 75be 2adf 50be bcf4 babd
00000210: 82dc 583e 1100 fe3d 508f e9bd 7588 c3be
00000220: cea3 cd3e e2ff ecbe 2c1f a6be d0ab 703d
00000230: 0279 24be 7979 5e3d a335 473e fe4f 71be
00000240: ca19 c13d 0d6d 9c3e 0453 3d3e 7a6b 50bc
00000250: 112a 06be 37e4 373e e01b 74be e2b3 633e
00000260: e76c 9a3d 6031 6bbe 7963 98be 38ef b43c
00000270: 6dc1 51bd f82a c63e 6858 423d 7da2 7ebe
00000280: d21e b33e 23e9 a1be 7ff7 393e 0c14 7fbe
00000290: 1b4a 303e 6e82 57be 9632 8b3e e3a3 debd
000002a0: b046 693e ef4c 8cbc 11f0 e2be 6f0a 6f3e
000002b0: aafd de3a 7b88 8fbe 1869 bcbe ff0e 8e3e
000002c0: f3ca 83be f863 fbbd 72b7 b8be 3fa1 1b3e
000002d0: bb1a 62be 5fff b5be 0d60 52be 616b 8a3e
000002e0: f4da af3d 14a3 153e c9be 0dbb 7b8d 8b3e
000002f0: 046d 6b3d be4b 063e d491 53be 727c a7be
00000300: c7ed 03be a90e 81be 83e1 f5bd a662 aa3e
00000310: 3399 9ebe 3905 74be a9ab be3d 9323 b23d
00000320: e029 b3bc 22a2 c8be a475 d63b ac5b 81bd
00000330: 297e 2b3e 3aba 503e 17cc e33d 72e2 ad3d
00000340: 70f5 febd a49a 803e cd20 7bbd 05ba d83e
00000350: 1ad6 d2bc cf9d 31bd 5e41 06be 4c29 0e3c
00000360: 259e d43d 81ee 87be 29ba 2c3e f74f 1d3e
00000370: 8051 ec3a 201f f8bd cefd 7cbe 81c0 1d3e
00000380: 28c5 eb3e c72c 803c 97e2 043e e5f3 32be
00000390: bee7 adbe 1296 8b3e 95cd d13d 7f98 eb3e
000003a0: 6e16 dabd 1202 883e 6b48 50be e31f d6be
000003b0: 950f 06be ef5d c7be f730 1cbe d0b0 703e
000003c0: 89d7 b93e 4b7a 77bd 3de7 c3be e157 01bd
000003d0: d319 0a3e 0f5d b13e 727e 453e d5c6 2d3e
000003e0: 4fb5 18be 1798 b9be 4ba3 78be bbb9 68be
000003f0: 0a72 f13d 4c02 cfbd 8e44 b93d 21c9 603e
-0.40858793 -0.39681426 -0.3318513 -0.34896967 -0.09030223 -0.060185798 -0.41569147 -0.17719126
0.13521327 -0.07647585 -0.11433502 -0.07952303 -0.328939 0.2240628 -0.3439156 0.10991387
-0.17571051 -0.15594116 0.34444514 -0.26618487 -0.09611081 -0.3557291 0.057095286 -0.15255885
0.33191848 -0.3450738 -0.061151393 0.09331628 0.09168754 -0.45493457 -0.4706684 0.21461836
-0.318434 -0.27388754 -0.27891305 -0.050372135 0.23218836 -0.3939623 -0.07689104 0.14289086
0.007414465 0.2701616 -0.31505674 0.12848966 0.19683325 -0.07368048 -0.3573217 -0.35980982
-0.41981274 -0.0014496436 -0.35453975 -0.4610608 -0.34987134 0.21169415 0.31409478 -0.008771316
0.1121567 0.3572205 0.36754826 0.2021833 0.057608824 -0.3258779 -0.2537821 0.31617457
-0.12695432 -0.3940472 -0.2258906 0.18410596 -0.03212245 -0.070564516 0.03315181 -0.10521122
-0.22386095 -0.22915776 0.236751 -0.4155771 -0.35611743 -0.23825358 0.2784016 0.2788935
0.30802056 -0.40379408 0.2362519 -0.39800483 0.015827551 -0.004057454 -0.06466894 0.04257936
-0.22747141 0.20566763 0.26549098 0.31658483 -0.31772786 0.2854392 -0.33677492 0.0064041372
0.20926547 -0.25112972 0.22251317 0.07891286 0.3598781 -0.2683287 -0.08862948 0.081287585
0.10619687 0.2951287 0.39575338 -0.27107245 0.11062914 -0.076104894 -0.020451656 -0.061003473
-0.013282925 -0.4033897 -0.46451297 -0.097628444 0.29123247 0.26567855 0.059247147 -0.0717743
-0.39215833 0.33145207 -0.016938789 -0.033645317 0.388032 0.22303551 0.047656715 -0.011879287
0.22236499 -0.24002825 -0.2039763 -0.09128711 0.21177867 0.124023564 -0.11404288 -0.38190046
0.40164036 -0.46288973 -0.32445657 0.058757603 -0.16061786 0.054315064 0.19454055 -0.23565671
0.09428747 0.3055195 0.18488699 -0.012720937 -0.13101985 0.17958151 -0.23838758 0.22236589
0.07540303 -0.22968054 -0.29763392 0.022086725 -0.051209856 0.38704658 0.047447592 -0.24866672
0.34984452 -0.31623182 0.18160819 -0.24909991 0.17215769 -0.21045849 0.27187032 -0.10871103
0.22780871 -0.017126529 -0.4432378 0.23343824 0.0017012854 -0.28033814 -0.3679893 0.27745816
-0.25740775 -0.12274927 -0.36077458 0.15198229 -0.2208051 -0.35546395 -0.20544453 0.2703505
0.08586684 0.1461299 -0.002162861 0.2725638 0.057477012 0.13114831 -0.20661098 -0.32712132
-0.12883674 -0.25206497 -0.120059036 0.33278388 -0.30976257 -0.23830117 0.09310085 0.086981915
-0.021870553 -0.39186198 0.0065447856 -0.06316313 0.16747345 0.2038354 0.111229114 0.08490457
-0.12449157 0.2511798 -0.06131058 0.42329422 -0.025736857 -0.04336339 -0.13110873 0.008676838
0.10381726 -0.26549152 0.1686789 0.15362535 0.001802966 -0.121153116 -0.24706194 0.15405466
0.46048856 0.015646352 0.12977062 -0.17475851 -0.33965868 0.27262932 0.1024429 0.46014783
-0.106488094 0.2656408 -0.20340125 -0.41821203 -0.13091882 -0.38938853 -0.15253054 0.23504949
0.36297253 -0.060419362 -0.38262358 -0.03157795 0.13486414 0.3464131 0.19286516 0.1697038
-0.14912914 -0.36248848 -0.24281041 -0.227271 0.11789329 -0.1010786 0.09046279 0.21951725

stconv_block1._graph_conv.lins.1.weight f4 [18, 18]
00000000: 6aeb 44bd c147 8e3e de07 1ebe 2438 54be
00000010: 5f4f a2be 85bd 62bc 9cf9 78be cd9c 8abe
00000020: bf70 96be 9a5d 44bd e1ee cebe 467f 513e
00000030: 0eba f03d 676b e8bd e674 99be f5fb b53e
00000040: d87b 55bd 74e9 8b3e f2d8 053e bb9b 0abe
00000050: 0a81 6cbe 0843 f33e 76fc d7bd f6d9 aa3e
00000060: cd09 973e 930c 4d3e 2d14 ec3c 70f8 16bd
00000070: a1ff ab3e e267 1cbe 98b7 353e b0bd 6c3d
00000080: 550c 0a3e 79a3 973e 6fcd 93be 4126 ab3d
00000090: f19d 1b3e db1b 91bd da27 3e3e 3c9f afbe
000000a0: b685 2a3e 0ff9 6d3c 44c4 96be e7bc 343e
000000b0: dc6d b83e 0382 9f3e 7fc6 4e3e 4055 913e
000000c0: 68ac 40be 6146 abbe 28d8 8dbc bd10 a63e
000000d0: ae03 10bc 5f31 72be 77bc d6be 2f1c 573e
000000e0: 2d8b 38be 65af a2be 3ae5 e1be 2884 6d3e
000000f0: d26e c03b bb37 653d d44f a53e 7cba cebc
00000100: 0a01 9e3c ed95 9b3e 2a0b 9f3d e4ed d13e
00000110: ad13 ce3e d521 82be bd23 08be 1e82 cf3e
00000120: a18c cb3e 82c9 723e 4d8a 9d3d 6df9 be3e
00000130: ba75 bfbc 4198 bc3e 74f6 513e 0a6f 76bd
00000140: cfc5 b33e 970a a73e 29fa 99be faca e83e
00000150: dea1 dcbd 1328 b03c 6a64 603d c9ec bd3e
00000160: f707 113e e61b c5be 47ff 0ebe 0dfd c8bd
00000170: b0c3 45be 2160 8e3d 5606 9abd d711 0b3e
00000180: b94e 543e e617 85be b97f 97be acdf 493d
00000190: b0f4 d9bd 9d8f 7f3c 5e69 bdbd ec6b a8be
000001a0: 6c3c 1fbe 9ae4 983e 799f 76be 1abd 87bd
000001b0: a46b 243e e157 a2be 69f1 4cbe b7af cebd
000001c0: c6a1 7d3e 5bf4 e6bd f635 bcbe f1f8 bebe
000001d0: 0946 8a3c e99a a13e 7552 d53d 7324 42be
000001e0: 35c2 0c3e 3379 0dbe c50c 603e f391 e23d
000001f0: 2ed2 bcbe ba1e c2be fdd8 c33e 0611 013e
00000200: 1a02 e43e 0686 aa3b 2214 8bbe f241 483e
00000210: 678e 5e3e 3b6f 2abe 5bf6 bfbb e690 983e
00000220: a1c7 2fbd cde7 94bd 97bf 95bc 0a11 babe
00000230: 9b50 3fbe d446 823d d626 283e fbf9 973e
00000240: a664 623d fb11 a53e 876d 593e 0fce b73e
00000250: 2780 8f3e 8c56 bcbe 7fd5 40be f6f1 47be
00000260: e71c 643d 569d 8b3d f714 e7be da31 d3bd
00000270: 2970 78bd 7df9 18be c289 ae3d 0925 0a3e
00000280: 72fc 9fbe 80eb b9be 1c92 59be 799c c23e
00000290: e7cd 78be a12e 7ebe 36fc 15be 8d59 6c3e
000002a0: 394c 173e 439c 22be 82f2 b5be 5784 2d3e
000002b0: 06f8 3cbe 43e8 adbe c216 d93d 372d c33e
000002c0: f906 bd3e fa7a 68be d5d9 be3d 6545 b03e
000002d0: 3083 5e3e 64db a43d 9580 b33e 1af7 af3e
000002e0: d95b 0cbd 5895 ac3e 2e96 47be ea19 96be
000002f0: 4e71 a43d 163c d0be 3189 e43e 26dc 633e
00000300: cc25 c73e 25f9 9a3e 9934 a13d 7978 6fbe
00000310: 9ec9 8bbc 7d06 58be e28f 543d ccfd e6bc
00000320: 0d87 9a3e 787a 3ebd f445 c13e 2b6e 50be
00000330: 0d68 0d3e c9bd 963e 43ad f4bd 84d5 9dbe
00000340: cec4 d33c bb04 3d3e 51d3 c5bd c6de 813e
00000350: f703 013e 2b94 803e 67e2 ae3e ac91 a03e
00000360: 0419 a2be 09f0 96bd 6d2d 6a3d 152f 843d
00000370: e8bf 043e 7679 1a3d 9676 d5be 1c35 243e
00000380: b05f 033e edcb 633e f132 d0be 92f7 183e
00000390: 49c1 ad3e f1d0 763e 5347 81be 4b64 2d3e
000003a0: 2588 9ebd 9535 ad3c 1ed9 9abe 7913 9a3e
000003b0: 5f9e 443e 54c4 8f3e b1c6 b1bd ea87 ce3e
000003c0: db44 843e 1524 41ba c375 39be 502b ba3e
000003d0: d649 753c 600a fd3d 7b17 a6be d8e6 a5be
000003e0: 884f 8c3e 4d86 91be 4060 b43d 2eac a6be
000003f0: 2b97 2e3e 1436 b1be 7ee6 0c3d 8dff 193e
-0.04807607 0.2778912 -0.15432689 -0.20724541 -0.3170118 -0.01383913 -0.24313968 -0.27072755
-0.29382893 -0.047940828 -0.40416625 0.20458707 0.11754237 -0.1134861 -0.29972 0.3554379
-0.05212006 0.27326548 0.1307104 -0.13535969 -0.230961 0.47512078 -0.105462 0.33369416
0.29499665 0.20024328 0.028818214 -0.036858022 0.33593467 -0.15274003 0.17745817 0.057798088
0.13481267 0.29616907 -0.2886767 0.08356906 0.15196969 -0.07085391 0.1856989 -0.34301174
0.16652569 0.014524712 -0.29446614 0.17650186 0.36021316 0.3115388 0.20192908 0.28385353
-0.18815768 -0.33452132 -0.017314985 0.32434645 -0.00878994 -0.23651646 -0.41940662 0.21006845
-0.18021841 -0.3177444 -0.44120198 0.23194945 0.005872586 0.05596135 0.32287467 -0.025235407
0.019287605 0.30387822 0.07765801 0.4100181 0.40249386 -0.25416437 -0.13294883 0.4052896
0.3975573 0.23709682 0.076923944 0.37299672 -0.023371566 0.3683491 0.2050417 -0.06016449
0.35111853 0.32625267 -0.3007367 0.4546736 -0.10773061 0.021503484 0.054783262 0.37094715
0.14163195 -0.38497847 -0.13964568 -0.098138906 -0.1931293 0.06951929 -0.0752074 0.13581024
0.20733155 -0.25994796 -0.29589632 0.049285576 -0.106423736 0.015598205 -0.09248613 -0.32894838
-0.15550393 0.2986191 -0.24084271 -0.06627865 0.16056687 -0.3170767 -0.20013966 -0.10092109
0.24768743 -0.11277076 -0.3675992 -0.37299302 0.016879098 0.315635 0.10416118 -0.18959217
0.13745959 -0.13815765 0.21879871 0.11062994 -0.36879104 -0.37914068 0.38251486 0.1260415
0.44532853 0.005203965 -0.27163798 0.19556406 0.2173401 -0.16643994 -0.0058582253 0.2979805
-0.04291499 -0.07270775 -0.018279834 -0.36341125 -0.18683092 0.06361166 0.16421065 0.29682907
0.055271767 0.3224028 0.21233188 0.35899398 0.2802746 -0.3678478 -0.18831442 -0.19525895
0.055691626 0.06817119 -0.45133182 -0.10312243 -0.06065384 -0.14938922 0.08522369 0.1349069
-0.31247288 -0.36312485 -0.21247143 0.38010004 -0.24297296 -0.24822475 -0.14646992 0.23081036
0.1477517 -0.15879922 -0.3553658 0.16945015 -0.18453988 -0.33966264 0.10600044 0.38120434
0.36919382 -0.22703162 0.09318892 0.34427944 0.21729732 0.08049658 0.35059038 0.3436821
-0.03426728 0.3370769 -0.19490883 -0.29316646 0.08029424 -0.40670842 0.4463592 0.22251949
0.38896024 0.30268207 0.0787136 -0.233858 -0.017063912 -0.21096225 0.05189503 -0.028197192
0.3018116 -0.046503514 0.37748682 -0.20354526 0.13809223 0.2944167 -0.119471096 -0.30826962
0.02585068 0.18458836 -0.09659446 0.25365275 0.12599169 0.25113043 0.34157106 0.3136114
-0.3165971 -0.07370002 0.057172228 0.06454293 0.12963831 0.03771349 -0.41692036 0.16035885
0.1282947 0.2224576 -0.40663865 0.1493819 0.33936527 0.24103142 -0.2524973 0.1693279
-0.07740811 0.021143714 -0.30243772 0.3009298 0.19201039 0.28079474 -0.086804755 0.4033807
0.25833783 -0.00073677424 -0.18111329 0.3636117 0.014971217 0.123554945 -0.3243979 -0.32402682
0.27404428 -0.28422776 0.08807421 -0.32553238 0.17049854 -0.3461157 0.034399502 0.15038891

stconv_block1._graph_conv.lins.2.weight f4 [18, 18]
00000000: 459b 3dbe fc99 903d 7c7d c5be 2bdb 643d
00000010: 3adf 113e a338 a4be 15dc 9e3e 4353 87bd
00000020: 97e7 643e aa4e 343e d181 653e e04f 733d
00000030: cb2c 463e 8755 863e b418 593e f113 943e
00000040: 970b 193e 6e94 803e af31 90be 9bd8 3fbd
00000050: 1622 233e 9f90 c63d 6777 ad3e 1203 883e
00000060: 6a9f 493c 3031 35be ca4a 43bd c18a 53bd
00000070: 62fb 6c3d ba70 0cbe 7619 343e 8b7f 113e
00000080: a67c a03e bdb9 8abe 1baa 86be 772f 4fbe
00000090: 5ee0 863e d811 d2bd e943 0abe 18fe aabd
000000a0: 88ce 503e bce9 6e3e 22b3 7c3d b8b1 ddbe
000000b0: 2f99 0a3e a286 d1be b3e5 53be 6615 993e
000000c0: 042c d6be 5ae2 5abe d372 ccbe ed24 843d
000000d0: b86e c23e 7a90 58be a91c b7be bcad 1cbe
000000e0: e2d0 dbbe 926c a6bd 41f8 c3be fe74 08bd
000000f0: aa2f bb3e 4507 463d d479 d8be c566 0cbe
00000100: a70b 99be f8bc 20b9 2fd9 163e 31e2 b7be
00000110: 83ce 363e 7428 c9be 293f 57be 5fc6 5bbe
00000120: 5854 903e 2e96 a5bb 44eb 7fbd 5097 f2bd
00000130: 7ade dcbe eb54 57be 1468 f6bd e8cb 923d
00000140: 8421 edbe 0842 98be 5e1f e23e 714d 8f3e
00000150: 3eb4 323e b416 b7be fe67 833e d723 4bbe
00000160: 827e 51be 8b74 863e aa55 973e 33df 95be
00000170: e0b7 8b3e 656a b43e 9218 fe3b 4f02 783e
00000180: bc96 923e 2fca ec3e 18d0 64be ae32 8c3c
00000190: 3959 0a3e aefc e4bd 474b 42be 4095 7d3e
000001a0: f261 a5be 129a 30be 80a7 1e3e 92a4 afbc
000001b0: ea11 a8bd 3291 da3e 1185 9bbd 938e 31bd
000001c0: 9baa 45be 5dce 0b3e 5e59 afbe 32f3 9bbe
000001d0: 4cc2 15be 93a5 84be 2154 9a3d 6ebe bebe
000001e0: 69c6 e0bc 3942 583e 8256 0ebe b1ee b33e
000001f0: 97c9 ccbd 4a64 84be 3723 49be dfd1 333d
00000200: ccd3 773d 48a0 2dbe 36af c03d 8567 70be
00000210: 7f01 1b3e d2fa 3fbe 8128 06be b776 78be
00000220: 666c cfbd 4479 b43e f72d 5bbe d615 b63e
00000230: 1b68 91bd 0ae4 6dbe 5d96 4dbe faef 353e
00000240: 94a8 14be d9b9 cf3d 49c8 803d de78 4a3e
00000250: d627 9b3e 7fa5 87bd 2b1e bf3e a43c c03e
00000260: 53ca c1bd aa55 cc3e 5a3e ab3e 2606 e53d
00000270: 8cc3 46be 11fd e33e 5279 46be 2323 b53e
00000280: e756 a6be 8680 7fbd 80b6 03be d2c4 9fbe
00000290: b595 473b 4785 4d3e 9d39 cebe ac92 03be
000002a0: 9837 f93b ae3f 4dbd abc3 273e 7110 5ebe
000002b0: bcc0 853e 9c9e 5a3e 2546 d0be e00c 0cbc
000002c0: 949a c4be 7afd 8c3b 7596 8cbd 07ea a53d
000002d0: e999 02be c5e1 b6bd 123f af3d bd45 a73e
000002e0: b28e e73e b464 5d3e 1f67 39bd deb7 6fbe
000002f0: 53ec 943e 7889 4e3e 7e1c 8fbe 266b c43d
00000300: 2516 95bd 17f6 dc3e f9b6 dabd a007 0e3e
00000310: 581c 863e 47c8 2b3e df3c 91be 5a98 8dbe
00000320: a061 153e 48d0 b6be 67db bd3e b800 9e3e
00000330: 08da c33e 7afb 4bbd 7cd3 3a3d e7ea bebe
00000340: 8be3 e93e b4ec a43d 8487 b73e e454 ec3e
00000350: 7f6d 98bc 741f 0bbe e709 cabe 0532 9f3e
00000360: 6252 7f3e e726 833e 753b 3c3e 275b abbe
00000370: 4ec6 033e 249a 32be c468 423e 62d3 8abd
00000380: c67f bdbd a886 9fbe 8c7a 21be d3c6 473c
00000390: a816 a03c 2ef0 08be 1289 44be f4dd cf3e
000003a0: b9cb cfbd 0a2f 8dba ee8f debe 1093 fbbe
000003b0: a6e5 b53e 68a1 953e 549a 863e 7d8c c23e
000003c0: bcff c2be 01ea be3e 31ad 83be 0a25 8abd
000003d0: 1b05 673e 7f76 53bd 563d 163e 1933 883d
000003e0: 961c c63d fe8b ae3e e437 29bd 59f1 463e
000003f0: 23bc 3bbe a3b1 b4bd fcca ba3e d723 6bbe
-0.18516262 0.0706062 -0.385723 0.055873077 0.1424531 -0.3207446 0.31027284 -0.06607678
0.2235397 0.17608133 0.22412802 0.059402347 0.19353025 0.26237127 0.2120083 0.28921464
0.14945827 0.25113243 -0.28162906 -0.04683743 0.15930972 0.09695553 0.3388016 0.26564842
0.012306074 -0.17694545 -0.047678746 -0.051645998 0.057856925 -0.13714877 0.17587838 0.1420881
0.313451 -0.27094832 -0.26301655 -0.2023295 0.26343054 -0.1025731 -0.13502468 -0.08349246
0.20391285 0.2333135 0.06169427 -0.4329965 0.13534997 -0.4092303 -0.20693092 0.29899138
-0.41830456 -0.21375409 -0.39931354 0.064523555 0.37975097 -0.21148863 -0.35764053 -0.1530065
-0.42932802 -0.08126177 -0.3827534 -0.033314697 0.36559802 0.048346777 -0.42280447 -0.13711078
-0.29891703 -0.00015329185 0.14731286 -0.35914758 0.17852215 -0.39288676 -0.21020187 -0.21462391
0.2818935 -0.005053303 -0.062480226 -0.11845267 -0.43138486 -0.21028487 -0.1203157 0.07167798
-0.46314633 -0.29737878 0.44164556 0.2798877 0.1745157 -0.3575951 0.25665277 -0.1983789
-0.20458415 0.2626079 0.29557544 -0.2927185 0.27288723 0.35237423 0.007754394 0.2421963
0.28630626 0.46248004 -0.22345006 0.01711401 0.13510598 -0.11181007 -0.18974029 0.24763966
-0.3230129 -0.17246273 0.15493584 -0.021440778 -0.08206542 0.426889 -0.0759374 -0.04334886
-0.19303362 0.1365294 -0.3424787 -0.3045898 -0.146249 -0.25907573 0.075355776 -0.3725466
-0.02743836 0.21119012 -0.13900188 0.35143045 -0.09999388 -0.25857764 -0.1964234 0.04390132
0.06050472 -0.16955674 0.09408419 -0.2347699 0.1513729 -0.18748024 -0.13101389 -0.24264036
-0.10128097 0.35248768 -0.21404253 0.35563534 -0.07099935 -0.23231521 -0.2007689 0.17767325
-0.14517432 0.101428695 0.06288201 0.1977267 0.3030383 -0.06623363 0.37327704 0.37546265
-0.094624184 0.39909106 0.33446008 0.11182813 -0.19410533 0.44529012 -0.19382218 0.3537837
-0.32488176 -0.06237843 -0.12862587 -0.3120485 0.0030454223 0.20070373 -0.4027833 -0.1284892
0.0076055042 -0.050109558 0.16383235 -0.2168596 0.26123607 0.21349567 -0.40678516 -0.0085479915
-0.38399184 0.0043026777 -0.06864635 0.08101278 -0.12754025 -0.08929781 0.085569516 0.32670394
0.45226055 0.21620446 -0.04526436 -0.23409984 0.2908655 0.20169628 -0.27951425 0.095907494
-0.07279614 0.43156502 -0.106794305 0.13870096 0.261935 0.16775618 -0.28366753 -0.27655298
0.14588022 -0.3570578 0.37081453 0.30859923 0.38252282 -0.049800374 0.045611843 -0.3728859
0.45681414 0.0805296 0.35845578 0.46158516 -0.0186069 -0.13586217 -0.3946068 0.3109285
0.2493377 0.25615618 0.18382056 -0.3346798 0.12868616 -0.17441612 0.18985277 -0.06778599
-0.092528865 -0.31157422 -0.15769404 0.0121933995 0.019542053 -0.13372871 -0.19192913 0.40599024
-0.10146279 -0.0010771465 -0.43469185 -0.49135637 0.3552677 0.29224706 0.26289618 0.3799781
-0.38085735 0.37287906 -0.25718072 -0.06745346 0.22560541 -0.05162668 0.14671835 0.06650371
0.09673421 0.3409118 -0.041313067 0.19428004 -0.18333487 -0.08822944 0.3648299 -0.2296289

stconv_block1._graph_conv.lins.3.weight f4 [18, 18]
00000000: 6648 1c3e 94cf 86be 9fee 08be 6ad1 d63d
00000010: c332 88be 48f5 a0be 822d 7c3e 5073 94be
00000020: 1d11 a8bd 4233 503c b17b 84be d011 9d3e
00000030: 6a38 7dbd 6304 e63e 0508 aabd 3c71 54bd
00000040: 7b7c 0c3e 041b c83e bcb9 ed3e ad36 29be
00000050: 31bc 20bd 879e 2a3e eaa4 593e 6c61 9f3e
00000060: 8adf 103e f6bd 8f3e d46f 83be ffc2 f83c
00000070: abc0 bbbe b900 093d e0dc ee3d 06f3 20be
00000080: c860 993e b221 0a3b 0559 8a3d bebc 39be
00000090: 12b9 b63e c70a 873e ecf4 6abe 606d ffbd
000000a0: 22e7 113e fab6 99bd 754b c03e b2cc 4bbe
000000b0: 3583 163e 75a7 c93e 68c9 77be b4e3 473e
000000c0: f1c3 0d3e 14fa 3ebe 889c 3e3e 5287 47be
000000d0: c66b 96be e2f1 1dbd 5702 a6be ad81 22be
000000e0: d4c5 a2be d534 6bbd f071 52be ee2a 683e
000000f0: 0997 6e3e c3ef 85be 8df1 873d cc17 573e
00000100: 2746 723e 0072 f43d 6fe1 72be 01c0 61be
00000110: 3c7f e83c e3b8 833d b7f4 7cbe fd1b 1c3e
00000120: 831a 273e 53c0 c8bc 9523 eebc b159 34bc
00000130: 8428 4ebe 6990 833d 8632 1dbd 34e5 4a3e
00000140: 31ac 903e 08eb 823d fd88 c9be a0d5 29be
00000150: 60e2 22be 31c4 d93e 42d6 9e3e ef15 8ebe
00000160: 79ec 8b3e 4f1b 30be 033c b2be 3073 35be
00000170: 5e64 383e 0a40 b73e 27e7 853e c9f3 6fbc
00000180: 65fc c5be 0d3d af3e 377e 0b3e 2c77 a63d
00000190: cd12 f63d 8a0d d63e ae22 0dbe 68f0 8bbc
000001a0: 2c20 d03e 5949 e9bd 68d3 b13e e368 153d
000001b0: 82f4 d7be ecfa 31be 664f 443d af7b abbe
000001c0: 6355 acbe 6ad5 a3bd 3f48 a83e 06b2 c0be
000001d0: 9b25 583e 9dc8 903e a55f 323e 8189 e4be
000001e0: 3676 073d ac37 cebe f120 89bd 0cc0 843e
000001f0: 8cea 583c 84dc 41be 34d4 8d3d 3220 63be
00000200: 9e91 b83e 6530 c43e f5ad 9cbe 8a24 b6be
00000210: 520d 843e 51f1 d6bd e2f7 2c3e e593 e63b
00000220: 9e33 243e 8e2e c23b 1c91 a73d 9a50 c0bc
00000230: 1ab9 fbbd 4271 f8bd b89a 27be 2833 2e3d
00000240: 8048 cb3c 15cd b13d f9e3 3c3e 7556 8a3e
00000250: 6fb5 563e 75aa 3d3c 3b8b 95be ed8e b33e
00000260: be46 39be 8c96 b03e 64a9 173e 5d0f 3abe
00000270: 2dad 893e b4a7 2f3e f513 c7bd cda3 663e
00000280: aa78 89bd 7c92 f7bd 0ac8 91be f67d 1d3d
00000290: 3274 54be 80bc e13e 9267 d0be ee68 7bbd
000002a0: 44bc b53e 096e b63d 97fb 43be f7f3 8a3b
000002b0: fcc6 36bd 790a 7ebd d026 1dbc 82d5 1c3e
000002c0: 221c 113e d984 943e 2c8f 6b3c acd5 7dbe
000002d0: 9c0f b63d 2c9c a93d 95f2 373e c6ff 8cbe
000002e0: 50c5 57bc 3fe0 803d 4d8d 57be ceea 39bd
000002f0: e552 c03e db62 2a3e d834 a0bd b5d9 8cbd
00000300: daf1 9a3c 0e70 e4be 5e85 0e3e 36d0 24bd
00000310: d179 393e 900c 813e e27c 53bd cd18 9c3d
00000320: ac95 883e fdc4 d53b 2d6f 883e 1d36 9cbe
00000330: 4371 bf3e 7e32 c5be ae65 cabe d6a6 153e
00000340: c6d1 7cbe e281 e63c 31e4 09be d1da ee3c
00000350: 8c3b 9dbe 6e24 a43d 42db bf3e 64b7 90be
00000360: 8623 bcbe 13a5 78bb d496 d73d 6c0c 823d
00000370: bbf6 0abe efc9 dcbd 6aa9 70be ac06 ae3c
00000380: 831c 12bd 3dfa a33e fe6a 1a3e f060 833d
00000390: 80ea 95be a345 273d d058 90be aaa4 20be
000003a0: 4cac c3be b494 c7be d08a 38be 5c7c 9e3e
000003b0: 1785 533e 1762 a83e 83bc c73e 079b 16be
000003c0: 1884 b6bd a1d3 af3e 55d6 5bbd 51cb a9be
000003d0: 4a93 f6bd a012 7a3e ece5 e6bd b65b 06be
000003e0: b0d1 c63e 49c8 bb3c 689f c5be acfe 09be
000003f0: fb04 3b3e 517e 973e 2b54 6abe 4419 d1bd
0.15261993 -0.26330245 -0.13372277 0.10489161 -0.26601228 -0.31437135 0.24626735 -0.28994226
-0.08206389 0.012707533 -0.2587562 0.30677652 -0.06182138 0.44925222 -0.08302311 -0.0518658
0.1371936 0.3908311 0.46430767 -0.16524763 -0.039241973 0.16662036 0.21254316 0.31129014
0.14147773 0.28074616 -0.25671256 0.030366419 -0.36670431 0.033447955 0.11663222 -0.15717706
0.2995665 0.0021077213 0.067552604 -0.18138406 0.35688072 0.2637541 -0.22944993 -0.124720335
0.14248326 -0.07505603 0.3755757 -0.19902304 0.14698489 0.39385572 -0.24197924 0.19520456
0.13844277 -0.18650085 0.186144 -0.19485214 -0.293791 -0.038560756 -0.3242366 -0.1586978
-0.31791556 -0.05742343 -0.20551276 0.22672626 0.23299803 -0.26159486 0.06637869 0.21005172
0.23659573 0.11935806 -0.23718809 -0.220459 0.028380983 0.06431749 -0.24702726 0.15245052
0.16318707 -0.02450577 -0.029069701 -0.011007712 -0.20132643 0.064240284 -0.03837826 0.19813997
0.28256372 0.06392485 -0.39362326 -0.16585398 -0.15906668 0.42532495 0.3102284 -0.2775111
0.27328852 -0.17197917 -0.3481141 -0.17719722 0.18007037 0.35791045 0.26152918 -0.014645525
-0.38669124 0.34226266 0.13622366 0.08128199 0.12015305 0.41807204 -0.1378276 -0.017082408
0.40649545 -0.11390943 0.34731603 0.03647698 -0.42178732 -0.17380875 0.047927283 -0.334928
-0.33658895 -0.0799969 0.3286762 -0.3763582 0.21108095 0.28278056 0.17419298 -0.44636157
0.03307172 -0.4027685 -0.06695736 0.2592777 0.013239514 -0.18931776 0.0692524 -0.2218025
0.36048597 0.38318172 -0.3060147 -0.35574752 0.25791413 -0.10495246 0.16891435 0.0070366734
0.16035315 0.00592596 0.08181974 -0.023475934 -0.12291165 -0.12130977 -0.16367614 0.042529255
0.024814844 0.086816944 0.1844634 0.27019086 0.20967649 0.011576285 -0.29207787 0.3506998
-0.18093392 0.34489858 0.14810711 -0.18169923 0.26889935 0.17153817 -0.097206034 0.22523423
-0.06712468 -0.120884866 -0.2847293 0.038450204 -0.2074745 0.44089127 -0.40704018 -0.061379366
0.35495198 0.08907706 -0.19138943 0.0042405087 -0.04462336 -0.062021706 -0.009591773 0.15315822
0.14170888 0.29007605 0.014377397 -0.2478854 0.08889696 0.082817405 0.17963631 -0.2753889
-0.013169602 0.062927715 -0.21049996 -0.045389943 0.37563244 0.16639273 -0.07822579 -0.06877462
0.018914152 -0.4461674 0.13918063 -0.040237628 0.18112876 0.25204897 -0.05163277 0.07621918
0.2667669 0.006523727 0.2664732 -0.30510035 0.373911 -0.38515085 -0.395307 0.14614424
-0.24689397 0.028138105 -0.13465954 0.029157074 -0.30709493 0.08014761 0.37471968 -0.28264916
-0.36745852 -0.0037940189 0.10526815 0.063500255 -0.13570683 -0.10780703 -0.23502126 0.021243416
-0.035671722 0.32026854 0.15079877 0.06414974 -0.29280472 0.040837895 -0.2819276 -0.15687814
-0.3821739 -0.3898064 -0.18021703 0.30954254 0.20656238 0.32887337 0.3901101 -0.14707576
-0.08911914 0.34341148 -0.0536712 -0.3316293 -0.12039812 0.24421167 -0.11274323 -0.13120922
0.38831854 0.022922652 -0.3859818 -0.13476056 0.18263619 0.2958856 -0.2288367 -0.10209897
